car_racing/model.pt (torch, 149447 bytes, 10 tensors)

conv1.weight f4 [12, 3, 7, 7]
00000000: 96a6 f3be 47ba a1be ed28 37be 0001 17be
00000010: 41fc 4ebe 7b82 a3be 5910 61be 2e8b d1be
00000020: d0c4 b9be d4de 66be ee30 74be 5e6b 12be
00000030: 8f79 2fbe c613 f4bd c579 cdbe ffb7 bdbe
00000040: 99c4 7fbe c1e5 ccbd 0475 debd a874 52be
00000050: 4224 5dbe a4a1 a8be cf25 b5be 1afe 7abe
00000060: 3bbe 01be 97e0 b5bc 90b1 39be 6eca 83be
00000070: 1d6f 30be d39d 7fbe 7a2f ccbd 5346 d9bd
00000080: 9e65 b4bb 141e d9bd d481 39bd 0aa0 f33c
00000090: 5313 b4bd b0b9 823b 8088 25bd 209d 9e3d
000000a0: 9668 33bc 6701 693c c534 163d 1626 1e3e
000000b0: b03c 0b3e 708a 0f3e 3c0a b93d d3c1 ed3d
000000c0: 948c f83c d3f7 e3be 7222 dabe e0f8 4cbe
000000d0: 547f 7abe 689e 44be d384 92be 2c62 23be
000000e0: 9f6a d1be 9fd6 aebe fe2b 8abe d886 94bd
000000f0: 7d0e f5bd d033 9ebe 5c40 50be c568 c9be
00000100: 0310 67be 1306 3dbe 8df5 ccbd 53ef e2bd
00000110: 0fa1 61be f653 09be b3b6 bfbe 283c bcbe
00000120: 1889 fcbd 29e4 fabd 92b9 90bd 70ac 32be
00000130: 1653 47be 839f 53be 3731 9ebe e298 3cbe
00000140: d748 00be b01c 123d ec93 36bd 2159 b3bd
00000150: e757 e1bd 4d74 55bd c34c 32be 4ab6 a13b
00000160: 3b60 943d 0c41 b83c 5d98 febc 43b6 113d
00000170: f6f8 223e 4d6f cf3d c937 e53d 38c3 7a3d
00000180: 9ab1 863d 6624 353e c652 c33d 67d7 be3d
00000190: 32e5 ce3e 7568 cb3e 3f76 d53e 707a 853e
000001a0: db42 a43e 50a8 0a3d b2b4 4e3e 049b a23e
000001b0: 3ed7 023f 3949 f53e 3819 9c3e 489d a33e
000001c0: ad3d bc3d 48c9 883e 6039 d83e e183 df3e
000001d0: 7eaf cf3e 3305 ad3e 77ad e63e d0cd cd3d
000001e0: 2a72 5e3e 530e a43e d42b f53e be62 1b3f
000001f0: 12c7 e13e 5f95 c73e 3edb 753e 8c5c 053e
00000200: adc7 b53e 0066 f23e 4b7f fb3e ac69 c03e
00000210: e327 d33e eddb 753e 8db9 673e a509 ad3e
00000220: c24c 083f b8c5 f73e c901 083f f2ce c83e
00000230: 91a3 b73e fa86 e93e cb19 f33e 0d00 103f
00000240: e1f8 0f3f 30fa 0f3f 29eb 163f e0cc a9bd
00000250: 6aa7 37bc c5c5 a6bd 6c2d 213d 9fb5 4d3c
00000260: 29c7 dc3c 7c39 603d c492 683d d0c4 a6bd
00000270: 9f7d 82bd 59c4 3bbc 2e52 8d3d af70 953a
00000280: 4a0b bbbd 23de 903d 810b 58bd 40ad d3bc
00000290: 50c9 6fbc c3a8 21bc 67bb 91bb fc02 6f3c
000002a0: 0e19 163c fda9 9bbd c076 00bd 4cb3 933d
000002b0: d679 a7bd 247a f33c 826d 603d baf2 1b3b
000002c0: 4136 42bd 7a2f 9e3c 65ea 973d 2c5f 083c
000002d0: ac16 693b 5638 78bd 1c69 bfba dba7 183d
000002e0: 5ea7 aabd 7b54 11bd c5f6 373d 1e09 b6bd
000002f0: c213 cb3b 9335 31bd 5ca9 70bd 4037 f6bc
00000300: 6dd8 9dbd 75a1 c1bd 589e 20bd 2ef0 b23c
00000310: 0346 923a fc4e 093d dddb 1fbb cc0a 8e3c
00000320: 1373 8d3d a254 29bd fe1c 1dbd 40db 8abd
00000330: e613 963d 1aa0 a2bd c72f dfbc 4fb1 61bd
00000340: 5718 90bc 4f5d 22bd 4f31 be3b dc8b 503d
00000350: 6c37 2abc 5456 9bbd e088 4ebd f7f2 183c
00000360: d94e 24bd 2808 3d3c b122 8a3d 978b eeba
00000370: f9ff 7a3d dba8 89bd da13 81bd 601e b33c
00000380: 64e3 ecbc 1233 5fbd 2b7d 413d 48db 9fbc
00000390: eb8b 55bd 54ab 413c 3a93 4fb8 95fa 0bbd
000003a0: 7eae 0f3a 8448 b3bc e243 623d 88ef 803d
000003b0: e342 07bc 8100 92bd e3cc afbd 25e6 973c
000003c0: 7370 b2bd 97a5 a2bc 5849 58bd 4b61 98bc
000003d0: 25d8 acbd 6d41 2fbd 1284 8e3d 9539 02bc
000003e0: 5701 0c3d 92ad dcbc d58a b3bd aed5 033c
000003f0: 1194 393d c70d 7c3b b3e6 cfbc 81d9 8a3d
-0.47588032 -0.3158743 -0.17886706 -0.14746475 -0.20213415 -0.31935486 -0.21978892 -0.40926498
-0.3628297 -0.2254594 -0.2384679 -0.1429877 -0.17136215 -0.11917834 -0.40131965 -0.3705444
-0.2497734 -0.100047596 -0.10862163 -0.20552313 -0.21595863 -0.32935822 -0.35380408 -0.24510995
-0.12670223 -0.02220182 -0.18134141 -0.2574038 -0.17229886 -0.24962549 -0.09969993 -0.106091164
-0.005505278 -0.1060144 -0.04528983 0.029739399 -0.08792748 0.003989421 -0.04041338 0.07744813
-0.010950228 0.014221526 0.03667142 0.15444216 0.13597369 0.14017653 0.09035155 0.11609235
0.03034047 -0.44525012 -0.42604405 -0.20016813 -0.24462634 -0.19201052 -0.28616962 -0.15955418
-0.40901658 -0.34148118 -0.26986688 -0.07252282 -0.11965654 -0.30898905 -0.20337051 -0.39337745
-0.22564702 -0.18459348 -0.100077726 -0.11080804 -0.22034095 -0.13410935 -0.37444076 -0.36764646
-0.12330836 -0.12250549 -0.07066645 -0.17448592 -0.19465289 -0.20666318 -0.30896923 -0.18417695
-0.12527786 0.03567189 -0.044574663 -0.08757234 -0.11003094 -0.052112866 -0.17412095 0.0049350606
0.07244917 0.022491954 -0.031078512 0.03557421 0.15915284 0.10128651 0.11192281 0.06122133
0.065768436 0.17689666 0.09537272 0.093184285 0.40409237 0.39728132 0.41691777 0.26069975
0.32082257 0.03385192 0.20186117 0.31758893 0.51109684 0.47907427 0.3048799 0.31955934
0.09191451 0.26716065 0.42231274 0.43655303 0.40563577 0.3379303 0.45054218 0.10049021
0.21723238 0.3204218 0.47885 0.60697544 0.4409719 0.3898115 0.24009416 0.13023585
0.35503903 0.47343445 0.49120554 0.3758062 0.4124137 0.24009676 0.22629376 0.3379642
0.53242123 0.48393035 0.53127724 0.39220387 0.3586698 0.4561079 0.47480616 0.5625008
0.56239134 0.5624113 0.58952576 -0.0829103 -0.011209348 -0.0814319 0.03934996 0.012555509
0.026950436 0.05474232 0.05678059 -0.08143008 -0.063716166 -0.011460387 0.0690044 0.001140138
-0.091330126 0.07073619 -0.052745346 -0.025839448 -0.014635399 -0.009866896 -0.004447389 0.014588114
0.009161247 -0.07600782 -0.03136325 0.072119325 -0.08177535 0.029721327 0.054791935 0.00237958
-0.04741502 0.019309748 0.07417754 0.008323472 0.0035566492 -0.0606006 -0.0014603469 0.037269454
-0.08332704 -0.035480957 0.044913072 -0.08888458 0.0061974237 -0.043263983 -0.058755264 -0.030055642
-0.077072956 -0.094546236 -0.03921351 0.021843042 0.0011159781 0.03352259 -0.0024392523 0.017339133
0.06906714 -0.041340478 -0.038357727 -0.067801 0.07328014 -0.07940693 -0.027244462 -0.055100735
-0.017589731 -0.039639767 0.005804218 0.05091463 -0.01038919 -0.07584825 -0.050423503 0.009335271
-0.040114257 0.011537589 0.06744898 -0.001819956 0.06127927 -0.0672166 -0.063026145 0.02186507
-0.028917022 -0.054492064 0.04723851 -0.019513741 -0.05213539 0.011820633 -4.948976e-05 -0.03417452
0.00054810185 -0.021885164 0.05524052 0.06295687 -0.008255693 -0.07129002 -0.08584001 0.018542359
-0.08712854 -0.01985435 -0.05280432 -0.01860108 -0.08439664 -0.042787004 0.06958784 -0.007948299
0.034180965 -0.026938234 -0.087667145 0.008046551 0.045307223 0.003846036 -0.02537856 0.06779767

conv1.bias f4 [12]
00000000: 20f5 ecbe 9625 5ebd 1094 1fbd 0d6a fd3e
00000010: da70 e6be 11e5 4b3d d125 8e3e 4310 07bd
00000020: 27b0 4c3e d4b1 f2be 115b 8bbc ac51 b9bd
-0.46280766 -0.054235063 -0.038959563 0.49494973 -0.45007974 0.049779 0.27763227 -0.032974493
0.19989072 -0.47401297 -0.017011197 -0.09048781

conv2.weight f4 [32, 12, 5, 5]
00000000: cd90 693d 994e ce3d 72cf 3c3e 97b5 963e
00000010: 7e11 84bd 4203 1f3d c5c2 9e3d 2e31 673e
00000020: 5c40 bb3e f7c5 bebb b62e 103e 1647 db3c
00000030: 341d 063f d064 b03e c31e 553d b326 f43d
00000040: 50c9 6cbe f54f 1c3f ab5b f23e bc21 0c3e
00000050: 8b6f 643e c3b4 22be 3a42 4c3f b879 913e
00000060: ab69 533d 2beb c2bb c1dc 6fbd f3d4 b1bc
00000070: 0aec 383d c0eb 34bc 855d 11bc 0976 60bd
00000080: 0e8d 163c 2278 363d a4a9 383d 6133 053d
00000090: a991 283d 4bc2 1a3d 4d3d 323d 74ec 293d
000000a0: 4e42 2ebc 5aee 033d d059 1fbc 9f1c 6cbd
000000b0: 863e 0c3d 3c1f b9bc 6f20 173d f358 35bd
000000c0: 819f fe3a c571 21bd 1080 2a3d 7f33 3a3d
000000d0: a94e 173b 6a5e 1abc 136b e93c 4486 103d
000000e0: d832 3b3a 83d9 47bd 8eb7 863c 3188 3bbd
000000f0: c01d 55bb 392d 04bd cdb6 39bc 5436 3bbd
00000100: 5580 eabc 8381 393c 2f3c d3bb d9e5 3cbc
00000110: 358d 243b 6009 fbbc 2d5c 15bc 40c1 08bc
00000120: 3925 05bd 5e60 fcbc f668 463d faa9 0e3d
00000130: c27a d1bc d7ff b1bd a78c 62be c192 b5bd
00000140: d30e 113e 45a8 d33d c23f ea3d 7303 99bd
00000150: fd27 80be 2db2 6fbe 36a0 2bbe 6b0f 50be
00000160: f6a9 6ebe 1500 42be 4cb0 073c 2bbe 0ebd
00000170: eaae 0abe b0b0 88bd 7ddb f4bd 368d 8e3d
00000180: 467d 263d f417 9a3d 8131 153d 4f40 06bc
00000190: 7246 29be a549 3dbe 207e 6abe a03d 53be
000001a0: 53e6 b4be 8df5 78bd 0b68 c1bd c71a 13be
000001b0: 9cb2 30be fa9f 92be d4e9 e6bd f016 3bbe
000001c0: 4cb4 19be 3532 a7bd 3857 2cbe c868 37be
000001d0: 30d1 aebe acb0 d8bc db53 31bd 905b dcbd
000001e0: 6dda 033d dab5 84bd baff 923e faa2 933e
000001f0: bbe2 703d 87c8 283c afcf 373d 4e2a 313d
00000200: e088 e7bb e634 b1bc f612 9f3b 0e2d 303c
00000210: 19aa 233d d6d2 a0bc f075 1cbd 1594 af3d
00000220: b0fb 703c b35d 8ebb eebf 953d b7e7 913d
00000230: d771 c9bc f460 0fbc 2fa6 723d 262e 9cbb
00000240: efca 943d fa4d 683d 1a68 c3bc 2137 343d
00000250: f879 a0bc 7a7a 373c 36a0 15be f73e 02be
00000260: 5205 fcbd c945 0ebe b3ef a8be 3c3c 50be
00000270: d626 47be 65d5 15be 8e8b d6bd 5a8b d8bd
00000280: 2b8f fbbb 5758 19bc f080 21bb 9cf2 3f3d
00000290: 5196 823d 9a5b 0c3d 5b60 613d 6f6f f03d
000002a0: 0759 6e3d 0efd 633d de4c 323c a76c ba3d
000002b0: 40a9 633d 9675 4d3d 3ddd cc3d 32eb fabc
000002c0: fea5 4dbd 4001 3abc 03f1 bfbc 7f16 4f3d
000002d0: 0566 31bd 1253 5d3d 9747 693d 0a14 4fbd
000002e0: 3219 36bc d9d4 133b ea67 b6bb 1535 e73b
000002f0: 6eff 0fbd 1a16 eebc d3a8 3bbc 2375 f2bb
00000300: 79a6 d43b b7ed 0fbc d338 9bbb 1c92 dc3c
00000310: f168 b6bc 6656 45bd 816c 943c 2c5b 2c3d
00000320: 4d6c 81be de42 a9be 78d9 78be 41cc 40be
00000330: 65b5 093e 0b04 2c3e 3f09 c4bb e84d 83bd
00000340: 0de4 07be 96b0 50be 0ede f8bd 3954 13be
00000350: b627 38bd 8ba2 83be 876f 66be cd82 05be
00000360: 6ea0 e5bd 74f6 5abd a154 aabd 07dd a8bd
00000370: e8bb 10bd 9d47 5ebd 8a40 963d 6608 5fbd
00000380: 5151 99bd 5ca2 12be 77bf debd 6908 72be
00000390: 3590 27be 84e8 c6be 9eb4 cbbc 5b83 11be
000003a0: de2c 22be bad5 42be fe10 8fbe b8d2 b9bd
000003b0: f313 1cbe b5fc 8cbd 0d97 ccbd 88cf 60be
000003c0: 0b05 c5bd aa2f a9be d20d 98bc 5da3 61bc
000003d0: d495 f6bd 367e 943d cbe6 b9bd a572 5f3e
000003e0: f525 4b3e a815 cb3c 50c7 3c3d 7817 1d3d
000003f0: e1b1 c6bb b431 193d 7fb4 07bd 10b8 c23c
0.05702286 0.10073585 0.18438509 0.29435417 -0.06448649 0.038821466 0.07751993 0.22577354
0.3657254 -0.005821939 0.14080319 0.026767295 0.5238831 0.34451914 0.05203129 0.11921444
-0.2312367 0.61059505 0.47335562 0.13684744 0.22308175 -0.15889268 0.79788554 0.28413177
0.051614445 -0.0059484444 -0.058560137 -0.021707987 0.04514698 -0.011042535 -0.008872394 -0.054800067
0.0091889035 0.04454816 0.045083657 0.032519702 0.041154537 0.03778295 0.043515492 0.041485265
-0.010635925 0.03220973 -0.009726003 -0.057644483 0.034239314 -0.022597902 0.036896165 -0.04427428
0.0019426198 -0.03941514 0.041626036 0.045459267 0.0023087657 -0.009421924 0.02849344 0.035284296
0.000714106 -0.04879142 0.016444948 -0.04578418 -0.0032518953 -0.03226969 -0.011335087 -0.04570611
-0.028625647 0.011322382 -0.0064463834 -0.011529409 0.002510858 -0.030644119 -0.009116215 -0.008346856
-0.0325062 -0.03080767 0.048439942 0.03483007 -0.02557123 -0.08691376 -0.22123967 -0.08865882
0.14165811 0.10334829 0.11437942 -0.07471361 -0.2503051 -0.23407812 -0.16760334 -0.20318381
-0.23307022 -0.18945344 0.008281779 -0.034849327 -0.13543287 -0.066743255 -0.119559266 0.069605276
0.040646814 0.075241 0.036424164 -0.008194043 -0.16530779 -0.18485124 -0.22899675 -0.20628977
-0.35331973 -0.06078105 -0.09443673 -0.14365683 -0.17255634 -0.28637677 -0.11275068 -0.18270469
-0.15010184 -0.08163873 -0.16830146 -0.17911065 -0.34143972 -0.026451431 -0.04329286 -0.10759652
0.03219073 -0.06479998 0.2871073 0.2883528 0.058809977 0.010301716 0.044875797 0.043253236
-0.0070658773 -0.02163167 0.0048545552 0.010752929 0.03995714 -0.019631784 -0.03819841 0.08573166
0.0147084445 -0.004344666 0.07311998 0.07124274 -0.024590416 -0.008751143 0.059240516 -0.0047662435
0.07265269 0.05671499 -0.02385335 0.043997888 -0.01958941 0.011198634 -0.14611897 -0.12719332
-0.12305702 -0.13893808 -0.32995376 -0.20335478 -0.19448408 -0.14632185 -0.10475837 -0.10573454
-0.007676979 -0.009359441 -0.0024643503 0.04686223 0.06376327 0.034267046 0.055023532 0.11740004
0.05819037 0.055661254 0.010882584 0.09102755 0.05558133 0.050160967 0.10003135 -0.030629728
-0.05020713 -0.011352837 -0.023430353 0.050558563 -0.043310184 0.0540343 0.05695304 -0.05055622
-0.0111144055 0.0022557287 -0.0055665867 0.0070558884 -0.035155706 -0.029063273 -0.011453825 -0.0073992177
0.0064895716 -0.008784703 -0.0047369986 0.02692514 -0.022266837 -0.0481781 0.018118145 0.042079136
-0.2527794 -0.33058828 -0.24301708 -0.18827917 0.13448103 0.16798417 -0.0059825475 -0.06411344
-0.13270588 -0.20379862 -0.121517286 -0.14387597 -0.044959746 -0.25709948 -0.22503482 -0.13038178
-0.1121224 -0.053457692 -0.08316923 -0.082452826 -0.03533545 -0.054267514 0.073365286 -0.05445137
-0.07486213 -0.14319748 -0.10876363 -0.2363602 -0.16363604 -0.3884927 -0.024866398 -0.14210264
-0.15837428 -0.19026843 -0.27942652 -0.090733945 -0.15241985 -0.068841375 -0.09989748 -0.21954167
-0.096201025 -0.33044177 -0.018561278 -0.013771859 -0.12040296 0.07250635 -0.090772234 0.21821077
0.19838698 0.0247906 0.046088517 0.03835246 -0.0060636853 0.037400916 -0.03313112 0.023769408

conv2.bias f4 [32]
00000000: ab26 11bf b153 13bd 3992 363c fa36 75ba
00000010: ee59 193b 9ca2 00bd 947c 81bd 27fa 17bd
00000020: 1150 6b3d e5bd 5cbd 8838 0a3c fab5 b8bd
00000030: b07c 123a 1eb0 703e 916e 06bf 8466 453c
00000040: 4af3 88bf ae8f acbd 7327 b0bc d6e4 753b
00000050: 6857 8dbd 31eb b0bc 7182 963b 88a6 17bd
00000060: 5ba8 a0bb 2d50 b73c b46e 8ebd 98b0 a7bd
00000070: 791c a83c 45a4 09bc 3a80 56be 9c27 07bd
-0.5669963 -0.035968486 0.011143261 -0.00093542004 0.002339955 -0.031405076 -0.063225895 -0.0371038
0.057449404 -0.053892035 0.00843633 -0.09019084 0.0005588038 0.23504683 -0.5251246 0.012048367
-1.0699246 -0.08425842 -0.021503186 0.003752043 -0.06901437 -0.021596523 0.0045931865 -0.03702405
-0.004902882 0.022377098 -0.06954709 -0.081879795 0.02052139 -0.008400981 -0.20947352 -0.03299676

conv3.weight f4 [64, 32, 3, 3]
00000000: 8963 2cbd 9572 83bd d837 06bd d1ed 893c
00000010: 30de 0dbd f316 d6bb 7b00 6dbd 799c 2fbd
00000020: 8ad0 5abc 900c 3bbc 274a 2cbd cc42 56bd
00000030: c6d5 d3bc 656e 6cbd fc3d 273d f4d1 1e3d
00000040: abc2 8f3c 7253 61bd 7bd4 babc 3a15 70bd
00000050: c1d5 4ebd e99f 933c 30d8 c5bc f69c 9fbc
00000060: 176c 5b3a ad7a 95bb 7e94 3bbd 72d4 21ba
00000070: 9c38 c23c c4b1 51bd df26 71bd 255d 57bc
00000080: 0120 00bd 7dd9 67bd d95d 88bc 2fbe 363b
00000090: 5815 11bc 0261 d93c 27bc 8dbc c57f 413d
000000a0: 9ad4 22bd 093a 3fbd 2e50 2cbc 9bf9 453d
000000b0: 8676 4b3d 445b 9b3c a7ac 35bd 6a09 bc3c
000000c0: 3a2e 193c 0c49 1abd 75a8 853c c672 6dbd
000000d0: ef5d a93c c8b2 283d 14cb 5bbd 8dea de3c
000000e0: da2f bdbc 60f5 46bb 676a 6ebd 867b dfbc
000000f0: cd82 af3c 137d d2bb 7b73 4bbb ea23 013d
00000100: 7a86 c63c 106f 64bd 9af1 7ebb cae9 47bd
00000110: 4bdd 22bd 09b2 2ebd d2a8 5ebc 1a04 463c
00000120: dbc2 1a3d a3b7 09bb b4ae a8bc f6a5 18bd
00000130: 0176 94bc 9838 063d 1c7c 2dbd 0f50 1cbd
00000140: aaba 52bd 3a8a 053d cab7 193b 88d1 e9bc
00000150: a020 3abd 898a 083d 7082 6f3d 59fe 63bd
00000160: 9472 09bc e8da 22bd 45f1 c23c 9fad 0abc
00000170: ed07 fabc d94a 223d 6dd0 c63b 4f75 593c
00000180: 9b7a 483c b0fd 20bd 8dbf 113b 8477 82bd
00000190: fc48 5dbd f005 85bc 75f8 35bd 60a5 edba
000001a0: b668 45bb 1dab 59bd f988 3dbd 9484 1cbd
000001b0: 37d2 0abd 38a5 343d 53f6 573b 41b2 033d
000001c0: 2144 c83c 51fb c9bc fed6 3dbd a13a 6b3c
000001d0: 0e8e 3cbb 3ec9 57bd fae6 a2bc 70c5 903c
000001e0: 1357 ab3c 0a21 0cbd 34e8 acbd 1ca7 80bd
000001f0: 79fc 6dbd b895 953c 9b11 7f3c aead 00bc
00000200: 2a7e 03bd e482 14bd e8a1 c8bc c19c 613c
00000210: 7a0c b23c 7042 8fbd 4558 a3bd d9de 5bbd
00000220: 972e ff3b e18f 143d 3d34 8b3c ab41 d53c
00000230: 4ee7 773b 470a 35bd a464 05bd fd4b 6e3a
00000240: 31c7 a0bd 16d2 613c 9f69 89bd a85d ebbc
00000250: 57db 4bbb f91e 0cbd 8b43 74bc 70fd 933c
00000260: 2336 abbd d661 29bd 4ce5 933c 947b d63c
00000270: b8f2 59bd 9a66 ecbc 1888 3fbd 75e6 b4bc
00000280: 9435 58bd 3bb0 adbc da6c a13c ec22 0c3d
00000290: 55c2 32bd 0913 9a3c 6596 853b 36db 9d3c
000002a0: e113 c63c fd08 0f3d 3438 0f3d 3173 203d
000002b0: dcc3 153c 99fd 1e3c d94e a93c 7644 b0bc
000002c0: 33aa bf3c 750b 443d 3396 11bd dbc7 273d
000002d0: 5b0a 4abd 6be6 da3c 916e 46bd dbf4 083c
000002e0: 689c 063d 20a0 eabc 8392 ba3c 1400 2cbd
000002f0: 4316 863a edd4 3fbd 914e d9bb cf1e 4c3d
00000300: f49c 4fbd 818d 553d 695b 3abd c6a1 0c3d
00000310: 1fa4 3b3a 582e 5b3d e18f 483d ca5c 56bc
00000320: 5e1d 153c 91da f83c e642 b63c 97b4 913c
00000330: 0bdd 83ba c6b7 2d3d be82 35bd cc52 d4bc
00000340: 8b3e 96bc 564d 1ebd 5428 f7bb 18f6 f03c
00000350: fae9 38bd f2f7 66bc 90cc b6bc f49f 503c
00000360: c5e1 cfbc 2ca4 543c 3c59 5b3a 702d 623b
00000370: da22 61bd da86 5fbb ea02 113d 6d43 993c
00000380: e197 f3bc 3940 dbbc 3898 2e3b 8600 0cbd
00000390: 0f65 273d a4f3 d63b 8ef6 4f3d 25ef 163d
000003a0: 67cc 34bd ca13 5dbd 8aae 21bd 7f78 4dbb
000003b0: 21c1 57bd 3f47 1c3c 49b6 53bd 43de 32bc
000003c0: c854 13bd 135c 103d 2f47 6d3d 468d 2a3d
000003d0: ce28 5e3d 565b 1a3c a2e9 a3bc e51b 07bd
000003e0: 88a2 043c 1950 2bbd 738b 193d 2618 053d
000003f0: 9457 4ebd 554a 563d d2ab 133d d535 133d
-0.04208711 -0.06418339 -0.0327681 0.016837033 -0.034635723 -0.0065334975 -0.057861786 -0.042873833
-0.013355384 -0.011416569 -0.042062905 -0.052309796 -0.025858771 -0.057722468 0.040830597 0.038774446
0.01754888 -0.05501122 -0.022806397 -0.058613993 -0.05049682 0.018020587 -0.024150938 -0.019484024
0.00083702937 -0.0045617432 -0.04579591 -0.00061733194 0.023708634 -0.05119492 -0.05887496 -0.013144766
-0.03128052 -0.056603897 -0.016646313 0.0027884354 -0.008855186 0.026535515 -0.017301632 0.04724099
-0.039753534 -0.046686206 -0.010517163 0.048333745 0.04967358 0.018964417 -0.044354107 0.022953708
0.0093494 -0.03766732 0.016315678 -0.057970785 0.020674674 0.041186124 -0.053660467 0.027211452
-0.023094106 -0.0030358657 -0.058206942 -0.02728058 0.021424675 -0.0064236014 -0.0031044174 0.03152839
0.024234045 -0.05576998 -0.003890133 -0.048806943 -0.039761823 -0.042650256 -0.013590055 0.012085939
0.037783485 -0.0021013997 -0.020591117 -0.037267648 -0.018122675 0.032768816 -0.042354688 -0.038162287
-0.051447548 0.032602526 0.0023455494 -0.028542295 -0.04544127 0.033335242 0.058474004 -0.055662487
-0.008389134 -0.039759547 0.023796687 -0.008464246 -0.030521357 0.03962216 0.0060673268 0.013272597
0.012236263 -0.039304435 0.0022239417 -0.06370452 -0.05402468 -0.016238183 -0.0444264 -0.0018130951
-0.0030122227 -0.053141702 -0.046273205 -0.038212374 -0.033891883 0.044102877 0.0032953217 0.032152418
0.024446549 -0.02465597 -0.04634761 0.01435724 -0.0028771195 -0.052682154 -0.019885529 0.01767227
0.020915544 -0.034211196 -0.08442727 -0.062818736 -0.058102105 0.018259868 0.015568162 -0.007853908
-0.03210274 -0.03625764 -0.024491265 0.013770283 0.021734465 -0.06995094 -0.079758205 -0.05367932
0.0077875364 0.036270026 0.016992683 0.02603229 0.0037827077 -0.044199254 -0.03256668 0.00090903026
-0.07850493 0.013782999 -0.06709599 -0.028731182 -0.0031106079 -0.034209225 -0.014908682 0.018065184
-0.08359935 -0.04135307 0.018053673 0.026181974 -0.05320999 -0.028857518 -0.04676065 -0.022082547
-0.05278547 -0.021202197 0.019705225 0.03421299 -0.04364236 0.018807905 0.0040767663 0.019269567
0.0241794 0.03492068 0.03496571 0.039172355 0.009140935 0.009704017 0.02066748 -0.02151702
0.023396587 0.04786249 -0.03554363 0.04096208 -0.049326282 0.0267212 -0.048445288 0.008359159
0.032864004 -0.028640807 0.02277494 -0.041992262 0.0010230023 -0.04683392 -0.0066316803 0.04983407
-0.05068679 0.0521369 -0.04549733 0.034333967 0.000715794 0.053510994 0.04896534 -0.013083646
0.00910124 0.030377658 0.022248697 0.017786307 -0.0010060383 0.042411588 -0.04431414 -0.025918387
-0.01834037 -0.038647972 -0.0075426493 0.029414222 -0.045145012 -0.014097201 -0.02231434 0.012733448
-0.02537621 0.012978595 0.0008367484 0.0034511946 -0.054964878 -0.0034107477 0.03540317 0.018708909
-0.029735507 -0.026764022 0.0026641022 -0.034180187 0.04086786 0.006559806 0.050772242 0.03684916
-0.044140246 -0.05397395 -0.039473094 -0.003135234 -0.052674416 0.009538471 -0.051687513 -0.010917249
-0.035969526 0.03524406 0.057929214 0.041638635 0.054238133 0.00942119 -0.020008866 -0.032985587
0.008095391 -0.041824434 0.037486505 0.032493733 -0.05037649 0.052316982 0.036052532 0.03594001

conv3.bias f4 [64]
00000000: 3f0b 88bd 7bdd 92bd a7d4 88bd 8451 17bd
00000010: db6a 9339 ef76 083d 9f96 9dbd 9e7a 56bd
00000020: d948 26bc f145 4abc 5cc9 d9bc 24ea aa3c
00000030: e1f5 8d3c dc18 87bd 643f 443d da1e b2bc
00000040: 1ab9 9abd e0d9 913c 6cdd 7e3b 90d7 08bd
00000050: d545 3dbd 844c 9a3c c8c3 3fbc 7439 0cbd
00000060: f218 86bd a52e 25bd 49d7 8dbd 1a50 c0bc
00000070: 8eb6 2fbd 5f53 b3bd 151e 78bd 3aee 91bd
00000080: 5b05 933e 16b7 66bd e2f1 c93c ccca 363d
00000090: 9cb1 4cbd 5460 5abd b15f 70bd ecfa 8dbb
000000a0: a13a 48bd 134a 29bc 2bd6 893b 845b 233e
000000b0: 2896 8a3e 3641 12bc 9dfe f0bb 48f5 5dbd
000000c0: 1230 1fbd cb54 213d 7cd6 c6bd 374d 13bd
000000d0: 93f1 1abd da5f 6abd 5c52 91bd 758b 5abc
000000e0: 1c82 23bd f471 5dbc b099 7abd 3dcd 84bd
000000f0: bec0 143e 093a 5a3c 152e afbc bd02 333d
-0.0664277 -0.0717115 -0.06681185 -0.036942974 0.00028117638 0.03331655 -0.07694744 -0.05236303
-0.010149204 -0.012345777 -0.026585273 0.0208636 0.017329158 -0.065965384 0.047912017 -0.021743227
-0.075548366 0.017804086 0.0038889302 -0.0334087 -0.046209175 0.018835314 -0.011704393 -0.03423448
-0.06547727 -0.040327687 -0.06925828 -0.023475695 -0.042898707 -0.08756136 -0.060575563 -0.07125516
0.28715023 -0.056326948 0.024651472 0.044626996 -0.04997407 -0.053314522 -0.05868501 -0.0043328907
-0.048884038 -0.010332602 0.004206439 0.15952879 0.27067685 -0.00892668 -0.007354571 -0.054188997
-0.038864203 0.039387506 -0.097088784 -0.03596231 -0.03782804 -0.057220317 -0.07095787 -0.013338913
-0.039919004 -0.013515938 -0.061181724 -0.064844586 0.1452665 0.013319501 -0.021384278 0.043703783

linear1.weight f4 [96, 64]
00000000: 3b59 70bd 3221 f53d 1567 a5bd 4a89 79bd
00000010: ea65 ac3d 8776 033e 5072 e03d 5f29 01bd
00000020: 332b a6bd ba29 403c e13c 19be a0eb c93c
00000030: 9840 7dbd cfb9 c73c e2c5 acbc 3d64 cbbd
00000040: 0a29 943b bcb7 7ebd 511b a0bd f260 84bc
00000050: ee9b 153c 23ce fa3c a021 06bd 08f3 dd3d
00000060: 81b7 d13d 065b 9ebb 862c e33d 2c0e dc3d
00000070: d567 56bd 5851 293d aebb 8c3d 3b89 febd
00000080: 1f27 c8bd b413 80bd 0706 323d c02b c83d
00000090: 75f4 66bd d038 b4bd 1481 2c3c c38b 7e3c
000000a0: 6176 c33d d84e 443d 3dad 87bd 915e c7bd
000000b0: 63ae 9d3d 50da bd3d 8a50 10bd 8fee 563c
000000c0: 2b56 33be 5bd1 fbbc e621 d5bd 5cc9 fcbd
000000d0: f81e 9cbd 5987 adbd 082f f33c 81dc a6bd
000000e0: 8feb 313d fffa 81bd d09f 23bd 202a d73d
000000f0: 3c37 2a3d ad96 69bd ca2c e7bd 90cb bd3c
00000100: efcb bbbd cd25 503d 4091 2dbe 44fe 67bd
00000110: 52ec 48bd 822f 113d 6905 12be 9240 5a3d
00000120: 7fb9 9f3d 4bca 213c 07ea f73d a867 ba3d
00000130: 58fc 883d ddb8 d0bc b0c9 6f3d e327 8a3d
00000140: 6b1b e23d e1ed 773d d3e0 1939 de16 ddbc
00000150: ad20 6cbc e472 f1bc e381 a0bd bc4b 9cbd
00000160: 3475 34bd 5e9d 17be 8c47 853d 7588 f8bd
00000170: da23 b53d 332d 94bd 1096 093d dc53 643d
00000180: fb9a 3b3d 5c38 00be 3afc 953d 1245 e93d
00000190: aad9 5cbd 847b 46bd 1f35 69bd ee69 f2bd
000001a0: fb76 e3bd 487e f53d d47f 9b3d 5fcb 8c3d
000001b0: 1a5c 343e af48 93bc 7cf8 acbd b03b a5bd
000001c0: e612 903d 7265 44bd 0b18 843d 709f 003c
000001d0: e41d ea3d 9ce5 40bf 96f8 8cbd 1ce2 a03c
000001e0: aada c33b 5247 d03d 3f19 bcbd 5113 d6bd
000001f0: da34 4dbe 445b 043e 4f15 f0bd 0978 a93d
00000200: 001a 4ebd 185d a2bc a03d 0f3d dee4 af3d
00000210: d018 4dbc 0602 d8bd 4af8 a93d b247 e33d
00000220: 9e53 87bd 489b 7d3d b8c5 8a3c 108b 0dbd
00000230: 3863 eebc 2812 83bd 623c c03d 647e 9c3d
00000240: 4c89 7fbd 68b4 683d 92ce e13d e666 95bd
00000250: 421b df3d 78bd f63d 5849 a93c bc7d c83d
00000260: bea5 dabd 42c6 cebd 540a e3bd 5848 d63d
00000270: 3812 fbbc 1899 8d3d a091 b03b 9c2a 773d
00000280: 2ccb dfbd 44ea 77bd 40d2 87bb 944a 5bbd
00000290: b8c1 7c3d 3cd2 a5bd f624 eb3d b286 97bd
000002a0: 4c13 1ebd 7473 9e3d 942a 97bd 2583 a53d
000002b0: bb5e c9bd a658 cfbd b055 223c dca7 e4bd
000002c0: 00e0 4b3c 1a2e f23d 0af8 b9bd 5a67 8ebd
000002d0: e491 d93d 65f1 a3bd 008e f13a f048 93bd
000002e0: d03c 17bd 5e04 f2bd 2025 7bbc 2c4c 22bd
000002f0: ae7c d3bd 68d2 a6bd 26a5 f1bd 382c a9bc
00000300: a0b7 ea3b ccd7 443d e68f 0e3d 69a9 de3d
00000310: 80a3 9dba 2ab6 3e3c 047a b8bd b211 de3d
00000320: b432 943d 50a4 41bc 00b6 7fba 2a4c c8bd
00000330: 54e1 ea3d 630b e93d 182b f0bd a269 ae3d
00000340: a071 233c 8cfa b9bd 0451 ad3d b8fc 213d
00000350: d42d 49bd 424a b73d 46f6 953d 6456 c0bd
00000360: 2819 cfbc b8de eebc f4e1 3cbd 1eb2 fdbd
00000370: 505a 763d 0061 bfbd 4825 9b3c 4ef3 9abd
00000380: dec1 883d 60a0 b83c a04c f93b 443b b73d
00000390: 3d35 6e3c da30 d7bd eccd 44bd 0851 4abd
000003a0: 74b8 0cbd 4c8b 6cbd 7c51 74bd 2a0b c9bd
000003b0: 15a8 e9bd 60f1 f43c 7e21 e3bd fefe 9e3d
000003c0: 2e33 fe3d b029 66bc a723 0d3e 90b2 24bc
000003d0: a0a7 a03b 879f 4b3c c2d9 b1bd 5cce 6f3d
000003e0: d02b 7b3c a411 66bd a884 7d3d f8c8 c1bd
000003f0: 55c3 e6bd cc35 ec3d 4a44 803d 1e98 e8bd
-0.058678847 0.11969222 -0.08076302 -0.060921945 0.08417876 0.12838183 0.109593034 -0.031533595
-0.08113708 0.011728698 -0.1496463 0.024648488 -0.06182918 0.024380593 -0.021090452 -0.09931228
0.004521494 -0.06218694 -0.0781771 -0.016159508 0.009131415 0.030615872 -0.03274691 0.1083737
0.10240079 -0.004832628 0.110924765 0.107448906 -0.052345116 0.04133734 0.068717346 -0.124285184
-0.09773087 -0.06253758 0.04346278 0.0977397 -0.056385476 -0.087998986 0.0105288215 0.0155362515
0.09544063 0.047926754 -0.066248395 -0.09734834 0.07699277 0.092701554 -0.035233058 0.0131184
-0.17513339 -0.030739477 -0.10406856 -0.12343094 -0.07623094 -0.08473081 0.029685512 -0.081475265
0.043437537 -0.06346702 -0.03994733 0.105060816 0.04155658 -0.05702846 -0.1128784 0.023168355
-0.091697566 0.0508173 -0.1694994 -0.05663897 -0.049053498 0.035445698 -0.14259876 0.053284235
0.077990524 0.009874891 0.12105184 0.09101802 0.06688756 -0.025478775 0.058541954 0.06745889
0.11040386 0.060529593 0.0001467497 -0.026988443 -0.014412087 -0.02947373 -0.07837274 -0.07631633
-0.044057086 -0.14806125 0.06507787 -0.12135402 0.08844729 -0.072351836 0.033590376 0.055744037
0.045802098 -0.125215 0.07323499 0.11390127 -0.053918518 -0.048457637 -0.056935426 -0.11836611
-0.11106678 0.11986977 0.07592741 0.068747275 0.17613259 -0.017978994 -0.08445832 -0.08068025
0.070348546 -0.04794831 0.06449898 0.007850513 0.114314824 -0.75350356 -0.068833515 0.019639067
0.0059769945 0.10169853 -0.09184503 -0.10452903 -0.20039693 0.1292544 -0.11722814 0.08274848
-0.050317764 -0.019819781 0.03497088 0.08588575 -0.012518123 -0.10547261 0.082993105 0.11097659
-0.066077456 0.061915666 0.016939983 -0.03455645 -0.029100046 -0.063999474 0.09386517 0.076412946
-0.062386796 0.056812674 0.11025728 -0.07295017 0.10893871 0.12047857 0.020664856 0.09789607
-0.10676144 -0.100964084 -0.11085954 0.10463017 -0.030648336 0.06913966 0.0053884536 0.06034337
-0.10927424 -0.060526147 -0.004144937 -0.05353792 0.061708182 -0.0809674 0.11481659 -0.07398738
-0.03859262 0.07736865 -0.07381168 0.080816545 -0.098325215 -0.1012433 0.009908125 -0.11164829
0.0124435425 0.118251994 -0.09080513 -0.069533065 0.106235296 -0.08005027 0.001842916 -0.07191646
-0.03692323 -0.11817239 -0.0153286755 -0.039623424 -0.10326515 -0.081456006 -0.11799078 -0.020650968
0.007163003 0.048057362 0.0348052 0.10872156 -0.0012026876 0.011640111 -0.09007648 0.10843219
0.07236233 -0.01181896 -0.0009754598 -0.09780152 0.11468759 0.11379125 -0.117269695 0.085162416
0.009975821 -0.09080991 0.08462718 0.039547652 -0.04911597 0.089497104 0.073223636 -0.09391478
-0.02528055 -0.029158935 -0.046113923 -0.12387489 0.060144722 -0.09344673 0.018938676 -0.07565938
0.06677602 0.02253741 0.0076080114 0.08946851 0.01453906 -0.105073646 -0.048047945 -0.049393684
-0.034355596 -0.05775003 -0.059648022 -0.098165825 -0.11409012 0.029900253 -0.110903725 0.0776348
0.124121055 -0.014048025 0.13783132 -0.010052338 0.004902795 0.012428171 -0.08684112 0.05854641
0.01533027 -0.056169167 0.06189409 -0.0946216 -0.112677254 0.115336984 0.06263025 -0.11357139

linear1.bias f4 [96]
00000000: 86d7 863d 200a ed3e 25a9 51bd b853 20be
00000010: 3c84 583d a7fa eb3d 3ddf 77bd d83a c73c
00000020: 7bf6 d4bd e84f ccbd 1c03 a93d 1772 903b
00000030: 92bb 3c3d a337 983d 7ebd aa3e ccf6 063f
00000040: 93ca 4fbd 2078 5e3c b425 083f 1102 843d
00000050: add6 08be f34c ce3e f971 8e3c 58b0 01be
00000060: eeac ea3c 4a44 ee3e 5efe 61be deab f8bd
00000070: 7dbe 133d 4cfb 063e 8e2e 8a3d 3ac0 8cbd
00000080: 1951 d83e d860 eebd 3501 4ebd 2bad 73bc
00000090: 2eb6 1fbd 2f06 91bd 568d bf3e 3139 8dbd
000000a0: 58c2 9fbd 1893 d53e 1b3e 3cbe 1007 58bd
000000b0: a0f0 0bbb 1b0c 353d 20ec c8bc 9ee0 04be
000000c0: fe9a e2bd 1c96 b93e c2de 2abe e17c 38bc
000000d0: 3513 353d 7a97 a73e 4cca fbbd 244e b1bd
000000e0: 274d 97bd 22ee babd b534 e9bd 76c9 0cbe
000000f0: 553e ae3d 8640 b33d 879d 063f 739c ad3d
00000100: 1c48 06be 974a 613d e6b4 bcbd 3d94 e9bd
00000110: 191e cebd 5a2d d23e 5740 78bd 6026 98bd
00000120: ab50 d33e f95d cf3d ac45 42bd def2 31be
00000130: fe4b a3bc c29e 7f3d f4ec 18be 434d 81bd
00000140: 08e9 78be 0e56 863d 8adc 233d 148a aabd
00000150: 6edb ebbd 46e1 993b 1291 9bbd 2619 d43e
00000160: c653 3abe 1115 23bb 1d7e ba3d 9d6e 513e
00000170: 4c74 803e c9cb 433d 16bd eebd 9358 983c
0.065840766 0.46296787 -0.0511867 -0.15656936 0.052860484 0.115224175 -0.06051563 0.024320051
-0.10398575 -0.099761784 0.08252546 0.004408132 0.04607732 0.07432487 0.33347696 0.5272033
-0.0507303 0.013578445 0.5318253 0.06445707 -0.13363142 0.40293083 0.01738833 -0.12664926
0.028646912 0.46536475 -0.2206969 -0.12142156 0.036070336 0.131818 0.06747161 -0.06872602
0.42249373 -0.11639565 -0.05029412 -0.014872829 -0.0389921 -0.070812576 0.37412518 -0.06895674
-0.0780074 0.41713786 -0.18383066 -0.05274111 -0.002135314 0.044200998 -0.024526656 -0.1297631
-0.11064719 0.36247337 -0.16686538 -0.011260242 0.04420777 0.32732755 -0.122944444 -0.08657482
-0.073877625 -0.091274515 -0.11387006 -0.13748726 0.08507983 0.08752541 0.5258412 0.08477106
-0.13113445 0.055002775 -0.09214191 -0.11405227 -0.100643344 0.41050225 -0.060608234 -0.074291945
0.41272482 0.10125346 -0.047429726 -0.17377803 -0.019933697 0.062407263 -0.1493414 -0.06313565
-0.24307644 0.065593824 0.040005244 -0.083271176 -0.11516462 0.004696044 -0.07596029 0.41425437
-0.1819602 -0.0024884383 0.091060854 0.20452352 0.25088727 0.047801767 -0.11657159 0.018596923

linear2.weight f4 [5, 96]
00000000: c0b7 62bd 5a47 a8be 8a67 303d daa9 703d
00000010: 05e5 503d c908 2ebd 6f0a 473c c2a9 1d3d
00000020: 86bc 9bbd 735c 8d3d 952a bebd 2081 a13d
00000030: 5565 93bd e612 8b3d 785d 84be 7945 a0be
00000040: c047 693d a837 803d 7573 a9be 1217 b33d
00000050: fbc6 b73d 866e bebe e65a a23d d1da 29bd
00000060: 7a4d 94bd 4aa8 47be 377c b33c 9513 813d
00000070: e87f 9e3d cc48 59bd 60f7 ddbd ccbb 753d
00000080: 9cc3 01bf d11a 4b3e 3678 8e3c c7ac 633e
00000090: 558c 763d 1006 cebb d9b7 9abe 4014 a6bb
000000a0: b1bc 793d 0741 65be 2ef4 593d 1470 2c3e
000000b0: f130 783d 2a48 cabd c8e3 2dbd 5f58 e9bc
000000c0: c35a 513d 8d46 5dbe 81e7 16bd b101 163d
000000d0: 289c 81bb 104a 5ebe dd92 99bd e9ad 89bc
000000e0: e89f 4a3d a450 8abd d529 863c 5b37 2fbd
000000f0: ec10 fe3c d0f9 76bd 1ae8 8fbe b327 c7bd
00000100: 1d18 343c 91f9 373c d284 bc3c 38ec 17bd
00000110: 1506 273d 8634 04bf 302c 18bb b88e c6bd
00000120: a708 87be 0fda 85bd b621 19bd a436 1dbd
00000130: 5297 2c3d 8a04 1d3d 58b9 a9bc bc0e bebd
00000140: 93d2 cc3d fdad 7e3d e47a 3cbb aa9e e13b
00000150: 8655 abbd 1291 823d 1268 c03d 733c 3cbe
00000160: b547 abbd ccd4 96bd 7903 613e 46ae 16be
00000170: 666b 07bf 0a41 49be 81d0 bebd 0364 303d
00000180: 221f 3c3d 5801 96be 46f6 803d feeb b0bb
00000190: 056f 9abd 3b63 01be 4d72 e43c 5e3e 56bd
000001a0: d806 1ebd e2fe 013e 6d30 c53c ceac a03d
000001b0: 3a0c 493d e25e 09bd 522b 94be 3540 66be
000001c0: ef25 e4bc 89cc 943d bc63 96be 3aab 4dbc
000001d0: f8f0 03bd a3a7 d8be 18a3 a63d 7723 1e3d
000001e0: 5d0d cabd f69f 23be be68 5c3e 793a 153d
000001f0: 406b aebc 5e18 88bd 6cb8 a23c 1b04 c13c
00000200: d7b7 fdbe 446d dfbd bb5d 323e 078c 933e
00000210: 07ee 463c 96cd 9dbc c9ad 92be 4a57 87bd
00000220: d3cc 723c d945 4abe eb5f bcbc c549 0c3e
00000230: dbf0 813d 1f85 cb3c fad1 623b 8e8b 283c
00000240: 1e66 433d 77fb bebd 6424 b93d a801 c63b
00000250: bcc3 8a3d 5221 2bbe 2d4e d43c 46e4 edbb
00000260: c7d2 acbd 79e5 1f3c fc1f 4c3c 5454 573d
00000270: 842c a1bd bf1b 76bd 735b a2be b4f7 923d
00000280: 8a0d 2dbd b0a8 aabd ff94 353c a5ea a6bd
00000290: afa9 033d 9ee2 f1be 86ed f33d fe78 4d3c
000002a0: cb5d c8be 8d81 ad3d de04 b9bc 1285 61bc
000002b0: 79d9 2ebc 8769 7abd 6865 9abd 7f1e 80bd
000002c0: d86e 113d dd67 3f3c aec7 94bd cf11 c2bd
000002d0: 2ce4 a2bd 678a 7dbc 80db 123d 368f 38be
000002e0: dbec 2dbc 8b5c 773d c340 633e b1ff a3bb
000002f0: 0444 1bbf 5711 4ebe cc18 d4bc 50cc 2c3d
00000300: 7bac c9bd c585 d1be d5af 423d 5c7a 223d
00000310: 065f 9abd 0ac1 cd3c 02f7 4a3d 43d5 96bd
00000320: 727e af3c 7556 ae3d 1d19 8b3c e58a 763c
00000330: 2f24 dc3d 697e 34bd 07af b1be 5ca8 9cbe
00000340: 141a 9238 342f 52bc fd58 80be c6d2 69bd
00000350: 79b0 953d ed53 f2be 6d4f 043d ae78 94bd
00000360: 32fa 893d dcc4 1abd 00a1 8abd a423 cfbc
00000370: 311b cb3b db05 84bd 29e1 523d fe68 133c
00000380: e097 0ebf c7ac 4b3a 7773 db3d c522 2c3e
00000390: c2a9 e8bd 2028 39bd 8978 7fbe 8eeb a9bc
000003a0: d609 0dbd 085e 7bbe 0cd4 e83c c6dd 113e
000003b0: 0190 12bd befb 6d3c a270 c1bd ce52 673d
000003c0: 8031 aebd 18a0 d3bd 7e60 063d 7d28 fc3b
000003d0: aa36 103e 3f6d 69bd bbd0 973d aae7 72bd
000003e0: ef9c 85bd a7ab c43c 35e9 e5bd 2737 c9bd
000003f0: c8a8 fb3c c10c 963d ff15 b4be c321 02bd
-0.05535102 -0.32866937 0.043067493 0.058755733 0.05099966 -0.042488847 0.012148484 0.03849197
-0.07604317 0.06902399 -0.09285466 0.07885957 -0.07197062 0.06790714 -0.2585256 -0.31303003
0.05695319 0.062606156 -0.330959 0.08744635 0.089734994 -0.37193698 0.07927494 -0.041468445
-0.0724134 -0.19497791 0.021909816 0.06302563 0.0773924 -0.05304794 -0.10838199 0.05999355
-0.506891 0.19834448 0.017391305 0.22233878 0.060192425 -0.006287344 -0.3021839 -0.005068332
0.060970966 -0.22388087 0.053211384 0.1683963 0.06059355 -0.098770455 -0.042453557 -0.028484521
0.051111948 -0.21608944 -0.036841873 0.036622707 -0.003955383 -0.2170794 -0.07498715 -0.01680656
0.049468905 -0.06753662 0.016377369 -0.0427774 0.031013928 -0.060296834 -0.28106767 -0.09724369
0.010992077 0.011228935 0.023012552 -0.03709051 0.040777285 -0.51642644 -0.0023219697 -0.0969519
-0.2637379 -0.06535732 -0.037385665 -0.038382187 0.042136498 0.038334407 -0.020718262 -0.09280154
0.10001101 0.062177647 -0.0028759772 0.0068853693 -0.08365922 0.06375326 0.0939485 -0.18382435
-0.083632864 -0.073648065 0.21973981 -0.14714918 -0.5289825 -0.19653717 -0.09317113 0.04306413
0.045928128 -0.292979 0.06296973 -0.005399226 -0.075407065 -0.1263551 0.027886534 -0.05230557
-0.038580745 0.12694886 0.024070943 0.0784546 0.049083926 -0.033537753 -0.289393 -0.2248543
-0.02785012 0.072655745 -0.29372966 -0.012553031 -0.032212228 -0.42315397 0.081365764 0.03860804
-0.0986583 -0.15978989 0.21524331 0.036432717 -0.021291375 -0.06645273 0.01986333 0.023561528
-0.4955432 -0.10909513 0.17418568 0.2881777 0.012141711 -0.01926307 -0.28648213 -0.06608446
0.014819342 -0.19753207 -0.022994956 0.13700016 0.06344768 0.02484375 0.003461002 0.010287179
0.04770481 -0.09325307 0.09040144 0.006042678 0.067756146 -0.1671193 0.025916183 -0.0072598783
-0.0843864 0.0097593 0.012458798 0.052570656 -0.07869819 -0.060085054 -0.31710395 0.07176152
-0.04224924 -0.08332956 0.011082887 -0.08150224 0.032144245 -0.47243208 0.119105384 0.012541054
-0.39134058 0.084719755 -0.022585329 -0.013764637 -0.010671967 -0.061135795 -0.07538873 -0.06255817
0.0355061 0.011682478 -0.072646484 -0.09476053 -0.079536766 -0.015474892 0.035853863 -0.1802338
-0.010615553 0.06039099 0.22192673 -0.005004846 -0.6065066 -0.20123802 -0.02589073 0.042187035
-0.09847351 -0.4092237 0.047530968 0.039667472 -0.075376555 0.025116462 0.04955197 -0.07364895
0.021422599 0.08512584 0.016979748 0.0150477635 0.10749089 -0.044065867 -0.34703848 -0.30597198
6.96668e-05 -0.012828637 -0.25067893 -0.057085775 0.0730905 -0.47329655 0.03230231 -0.0724958
0.06737174 -0.037785396 -0.067689896 -0.02528555 0.00619831 -0.06446429 0.05148426 0.0089972
-0.5570049 0.0007769581 0.107153825 0.16810139 -0.11360504 -0.04520428 -0.24948324 -0.020742204
-0.03443321 -0.24547589 0.028421424 0.14244756 -0.035781864 0.014525352 -0.09445311 0.056475453
-0.08505535 -0.1033327 0.032806866 0.0076952563 0.14083353 -0.05698895 0.07412859 -0.059302963
-0.06524073 0.024007631 -0.11226121 -0.098249726 0.03072013 0.07326651 -0.35173032 -0.03177048

linear2.bias f4 [5]
00000000: f739 edbe 68d1 adbe cc69 18be d8b1 dcbd
00000010: 7af6 94be
-0.46333286 -0.33948827 -0.14884108 -0.107761085 -0.29094297
